…
[1] 0.9992237
[1] 0.9992694
[1] 0.999315
[1] 0.9993607
[1] 0.9994064
[1] 0.999452
[1] 0.9994977
[1] 0.9995434
[1] 0.999589
[1] 0.9996347
[1] 0.9996804
[1] 0.999726
[1] 0.9997717
[1] 0.9998173
[1] 0.999863
[1] 0.9999087
[1] 0.9999543
[1] 1
[1]     6    24 21899
[1] 21899     6    24
[1] "seed set, sampling train indices"
________________________________________________________________________________
Layer (type)                        Output Shape                    Param #     
================================================================================
conv1d (Conv1D)                     (None, 6, 24)                   1752        
________________________________________________________________________________
activation (Activation)             (None, 6, 24)                   0           
________________________________________________________________________________
max_pooling1d (MaxPooling1D)        (None, 3, 24)                   0           
________________________________________________________________________________
dropout (Dropout)                   (None, 3, 24)                   0           
________________________________________________________________________________
flatten (Flatten)                   (None, 72)                      0           
________________________________________________________________________________
dense (Dense)                       (None, 512)                     37376       
________________________________________________________________________________
activation_1 (Activation)           (None, 512)                     0           
________________________________________________________________________________
dropout_1 (Dropout)                 (None, 512)                     0           
________________________________________________________________________________
dense_1 (Dense)                     (None, 2)                       1026        
________________________________________________________________________________
activation_2 (Activation)           (None, 2)                       0           
================================================================================
Total params: 40,154
Trainable params: 40,154
Non-trainable params: 0
________________________________________________________________________________
2019-04-18 08:41:06.737661: I tensorflow/core/platform/cpu_feature_guard.cc:141] Your CPU supports instructions that this TensorFlow binary was not compiled to use: AVX2 AVX512F FMA
…
